…
dictions.bias', 'cls.seq_relationship.bias']
- This IS expected if you are initializing BertModel from the checkpoint of a model trained on another task or with another architecture (e.g. initializing a BertForSequenceClassification model from a BertForPreTraining model).
- This IS NOT expected if you are initializing BertModel from the checkpoint of a model that you expect to be exactly identical (initializing a BertForSequenceClassification model from a BertForSequenceClassification model).
CustomModel(
  (pretrained_model): BertModel(
    (embeddings): BertEmbeddings(
      (word_embeddings): Embedding(21128, 768, padding_idx=0)
      (position_embeddings): Embedding(512, 768)
      (token_type_embeddings): Embedding(2, 768)
      (LayerNorm): LayerNorm((768,), eps=1e-12, elementwise_affine=True)
      (dropout): Dropout(p=0.1, inplace=False)
    )
    (encoder): BertEncoder(
      (layer): ModuleList(
        (0): BertLayer(
          (attention): BertAttention(
            (self): BertSelfAttention(
              (query): Linear(in_features=768, out_features=768, bias=True)
              (key): Linear(in_features=768, out_features=768, bias=True)
              (value): Linear(in_features=768, out_features=768, bias=True)
              (dropout): Dropout(p=0.1, inplace=False)
            )
            (output): BertSelfOutput(
              (dense): Linear(in_features=768, out_features=768, bias=True)
              (LayerNorm): LayerNorm((768,), eps=1e-12, elementwise_affine=True)
              (dropout): Dropout(p=0.1, inplace=False)
            )
          )
          (intermediate): BertIntermediate(
            (dense): Linear(in_features=768, out_features=3072, bias=True)
            (intermediate_act_fn): GELUActivation()
          )
          (output): BertOutput(
            (dense): Linear(in_features=3072, out_features=768, bias=True)
            (LayerNorm): LayerNorm((768,), eps=1e-12, elementwise_affine=True)
            (dropout): Dropout(p=0.1, inplace=False)
          )
        )
        (1): BertLayer(
          (attention): BertAttention(
            (self): BertSelfAttention(
              (query): Linear(in_features=768, out_features=768, bias=True)
              (key): Linear(in_features=768, out_features=768, bias=True)
              (value): Linear(in_features=768, out_features=768, bias=True)
              (dropout): Dropout(p=0.1, inplace=False)
            )
            (output): BertSelfOutput(
              (dense): Linear(in_features=768, out_features=768, bias=True)
              (LayerNorm): LayerNorm((768,), eps=1e-12, elementwise_affine=True)
              (dropout): Dropout(p=0.1, inplace=False)
            )
          )
          (intermediate): BertIntermediate(
            (dense): Linear(in_features=768, out_features=3072, bias=True)
            (intermediate_act_fn): GELUActivation()
          )
          (output): BertOutput(
            (dense): Linear(in_features=3072, out_features=768, bias=True)
            (LayerNorm): LayerNorm((768,), eps=1e-12, elementwise_affine=True)
            (dropout): Dropout(p=0.1, inplace=False)
          )
        )
        (2): BertLayer(
          (attention): BertAttention(
            (self): BertSelfAttention(
              (query): Linear(in_features=768, out_features=768, bias=True)
              (key): Linear(in_features=768, out_features=768, bias=True)
              (value): Linear(in_features=768, out_features=768, bias=True)
              (dropout): Dropout(p=0.1, inplace=False)
            )
            (output): BertSelfOutput(
              (dense): Linear(in_features=768, out_features=768, bias=True)
              (LayerNorm): LayerNorm((768,), eps=1e-12, elementwise_affine=True)
              (dropout): Dropout(p=0.1, inplace=False)
            )
          )
          (intermediate): BertIntermediate(
            (dense): Linear(in_features=768, out_features=3072, bias=True)
            (intermediate_act_fn): GELUActivation()
          )
          (output): BertOutput(
            (dense): Linear(in_features=3072, out_features=768, bias=True)
            (LayerNorm): LayerNorm((768,), eps=1e-12, elementwise_affine=True)
            (dropout): Dropout(p=0.1, inplace=False)
          )
        )
        (3): BertLayer(
          (attention): BertAttention(
            (self): BertSelfAttention(
              (query): Linear(in_features=768, out_features=768, bias=True)
              (key): Linear(in_features=768, out_features=768, bias=True)
              (value): Linear(in_features=768, out_features=768, bias=True)
              (dropout): Dropout(p=0.1, inplace=False)
            )
            (output): BertSelfOutput(
              (dense): Linear(in_features=768, out_features=768, bias=True)
              (LayerNorm): LayerNorm((768,), eps=1e-12, elementwise_affine=True)
              (dropout): Dropout(p=0.1, inplace=False)
            )
          )
          (intermediate): BertIntermediate(
            (dense): Linear(in_features=768, out_features=3072, bias=True)
            (intermediate_act_fn): GELUActivation()
          )
          (output): BertOutput(
            (dense): Linear(in_features=3072, out_features=768, bias=True)
            (LayerNorm): LayerNorm((768,), eps=1e-12, elementwise_affine=True)
            (dropout): Dropout(p=0.1, inplace=False)
          )
        )
        (4): BertLayer(
          (attention): BertAttention(
            (self): BertSelfAttention(
              (query): Linear(in_features=768, out_features=768, bias=True)
              (key): Linear(in_features=768, out_features=768, bias=True)
              (value): Linear(in_features=768, out_features=768, bias=True)
              (dropout): Dropout(p=0.1, inplace=False)
            )
            (output): BertSelfOutput(
              (dense): Linear(in_features=768, out_features=768, bias=True)
              (LayerNorm): LayerNorm((768,), eps=1e-12, elementwise_affine=True)
              (dropout): Dropout(p=0.1, inplace=False)
            )
          )
          (intermediate): BertIntermediate(
            (dense): Linear(in_features=768, out_features=3072, bias=True)
            (intermediate_act_fn): GELUActivation()
          )
          (output): BertOutput(
            (dense): Linear(in_features=3072, out_features=768, bias=True)
            (LayerNorm): LayerNorm((768,), eps=1e-12, elementwise_affine=True)
            (dropout): Dropout(p=0.1, inplace=False)
          )
        )
        (5): BertLayer(
          (attention): BertAttention(
            (self): BertSelfAttention(
              (query): Linear(in_features=768, out_features=768, bias=True)
              (key): Linear(in_features=768, out_features=768, bias=True)
              (value): Linear(in_features=768, out_features=768, bias=True)
              (dropout): Dropout(p=0.1, inplace=False)
            )
            (output): BertSelfOutput(
              (dense): Linear(in_features=768, out_features=768, bias=True)
              (LayerNorm): LayerNorm((768,), eps=1e-12, elementwise_affine=True)
              (dropout): Dropout(p=0.1, inplace=False)
            )
          )
          (intermediate): BertIntermediate(
            (dense): Linear(in_features=768, out_features=3072, bias=True)
            (intermediate_act_fn): GELUActivation()
          )
          (output): BertOutput(
            (dense): Linear(in_features=3072, out_features=768, bias=True)
            (LayerNorm): LayerNorm((768,), eps=1e-12, elementwise_affine=True)
            (dropout): Dropout(p=0.1, inplace=False)
          )
        )
        (6): BertLayer(
          (attention): BertAttention(
            (self): BertSelfAttention(
              (query): Linear(in_features=768, out_features=768, bias=True)
              (key): Linear(in_features=768, out_features=768, bias=True)
              (value): Linear(in_features=768, out_features=768, bias=True)
              (dropout): Dropout(p=0.1, inplace=False)
            )
            (output): BertSelfOutput(
              (dense): Linear(in_features=768, out_features=768, bias=True)
              (LayerNorm): LayerNorm((768,), eps=1e-12, elementwise_affine=True)
              (dropout): Dropout(p=0.1, inplace=False)
            )
          )
          (intermediate): BertIntermediate(
            (dense): Linear(in_features=768, out_features=3072, bias=True)
            (intermediate_act_fn): GELUActivation()
          )
          (output): BertOutput(
            (dense): Linear(in_features=3072, out_features=768, bias=True)
            (LayerNorm): LayerNorm((768,), eps=1e-12, elementwise_affine=True)
            (dropout): Dropout(p=0.1, inplace=False)
          )
        )
        (7): BertLayer(
          (attention): BertAttention(
            (self): BertSelfAttention(
              (query): Linear(in_features=768, out_features=768, bias=True)
              (key): Linear(in_features=768, out_features=768, bias=True)
              (value): Linear(in_features=768, out_features=768, bias=True)
              (dropout): Dropout(p=0.1, inplace=False)
            )
            (output): BertSelfOutput(
              (dense): Linear(in_features=768, out_features=768, bias=True)
              (LayerNorm): LayerNorm((768,), eps=1e-12, elementwise_affine=True)
              (dropout): Dropout(p=0.1, inplace=False)
            )
          )
          (intermediate): BertIntermediate(
            (dense): Linear(in_features=768, out_features=3072, bias=True)
            (intermediate_act_fn): GELUActivation()
          )
          (output): BertOutput(
            (dense): Linear(in_features=3072, out_features=768, bias=True)
            (LayerNorm): LayerNorm((768,), eps=1e-12, elementwise_affine=True)
            (dropout): Dropout(p=0.1, inplace=False)
          )
        )
        (8): BertLayer(
          (attention): BertAttention(
            (self): BertSelfAttention(
              (query): Linear(in_features=768, out_features=768, bias=True)
              (key): Linear(in_features=768, out_features=768, bias=True)
              (value): Linear(in_features=768, out_features=768, bias=True)
              (dropout): Dropout(p=0.1, inplace=False)
            )
            (output): BertSelfOutput(
              (dense): Linear(in_features=768, out_features=768, bias=True)
              (LayerNorm): LayerNorm((768,), eps=1e-12, elementwise_affine=True)
              (dropout): Dropout(p=0.1, inplace=False)
            )
          )
          (intermediate): BertIntermediate(
            (dense): Linear(in_features=768, out_features=3072, bias=True)
            (intermediate_act_fn): GELUActivation()
          )
          (output): BertOutput(
            (dense): Linear(in_features=3072, out_features=768, bias=True)
            (LayerNorm): LayerNorm((768,), eps=1e-12, elementwise_affine=True)
            (dropout): Dropout(p=0.1, inplace=False)
          )
        )
        (9): BertLayer(
          (attention): BertAttention(
            (self): BertSelfAttention(
              (query): Linear(in_features=768, out_features=768, bias=True)
              (key): Linear(in_features=768, out_features=768, bias=True)
              (value): Linear(in_features=768, out_features=768, bias=True)
              (dropout): Dropout(p=0.1, inplace=False)
            )
            (output): BertSelfOutput(
              (dense): Linear(in_features=768, out_features=768, bias=True)
              (LayerNorm): LayerNorm((768,), eps=1e-12, elementwise_affine=True)
              (dropout): Dropout(p=0.1, inplace=False)
            )
          )
          (intermediate): BertIntermediate(
            (dense): Linear(in_features=768, out_features=3072, bias=True)
            (intermediate_act_fn): GELUActivation()
          )
          (output): BertOutput(
            (dense): Linear(in_features=3072, out_features=768, bias=True)
            (LayerNorm): LayerNorm((768,), eps=1e-12, elementwise_affine=True)
            (dropout): Dropout(p=0.1, inplace=False)
          )
        )
        (10): BertLayer(
          (attention): BertAttention(
            (self): BertSelfAttention(
              (query): Linear(in_features=768, out_features=768, bias=True)
              (key): Linear(in_features=768, out_features=768, bias=True)
              (value): Linear(in_features=768, out_features=768, bias=True)
              (dropout): Dropout(p=0.1, inplace=False)
            )
            (output): BertSelfOutput(
              (dense): Linear(in_features=768, out_features=768, bias=True)
              (LayerNorm): LayerNorm((768,), eps=1e-12, elementwise_affine=True)
              (dropout): Dropout(p=0.1, inplace=False)
            )
          )
          (intermediate): BertIntermediate(
            (dense): Linear(in_features=768, out_features=3072, bias=True)
            (intermediate_act_fn): GELUActivation()
          )
          (output): BertOutput(
            (dense): Linear(in_features=3072, out_features=768, bias=True)
            (LayerNorm): LayerNorm((768,), eps=1e-12, elementwise_affine=True)
            (dropout): Dropout(p=0.1, inplace=False)
          )
        )
        (11): BertLayer(
          (attention): BertAttention(
            (self): BertSelfAttention(
              (query): Linear(in_features=768, out_features=768, bias=True)
              (key): Linear(in_features=768, out_features=768, bias=True)
              (value): Linear(in_features=768, out_features=768, bias=True)
              (dropout): Dropout(p=0.1, inplace=False)
            )
            (output): BertSelfOutput(
              (dense): Linear(in_features=768, out_features=768, bias=True)
              (LayerNorm): LayerNorm((768,), eps=1e-12, elementwise_affine=True)
              (dropout): Dropout(p=0.1, inplace=False)
            )
          )
          (intermediate): BertIntermediate(
            (dense): Linear(in_features=768, out_features=3072, bias=True)
            (intermediate_act_fn): GELUActivation()
          )
          (output): BertOutput(
            (dense): Linear(in_features=3072, out_features=768, bias=True)
            (LayerNorm): LayerNorm((768,), eps=1e-12, elementwise_affine=True)
            (dropout): Dropout(p=0.1, inplace=False)
          )
        )
      )
    )
    (pooler): BertPooler(
      (dense): Linear(in_features=768, out_features=768, bias=True)
      (activation): Tanh()
    )
  )
  (fc_dropout): Dropout(p=0.5, inplace=False)
  (fc): Linear(in_features=768, out_features=15, bias=True)
)
pretrained_model.embeddings.word_embeddings.weight False
pretrained_model.embeddings.position_embeddings.weight False
pretrained_model.embeddings.token_type_embeddings.weight False
pretrained_model.embeddings.LayerNorm.weight False
pretrained_model.embeddings.LayerNorm.bias False
pretrained_model.encoder.layer.0.attention.self.query.weight False
pretrained_model.encoder.layer.0.attention.self.query.bias False
…
- This IS NOT expected if you are initializing AlbertModel from the checkpoint of a model that you expect to be exactly identical (initializing a BertForSequenceClassification model from a BertForSequenceClassification model).
Some weights of AlbertModel were not initialized from the model checkpoint at /data0/nfs_data/zhaoxi9/pretrained_language_model/huggingface_pretrained_models/ckiplab_albert-tiny-chinese and are newly initialized: ['albert.pooler.bias', 'albert.pooler.weight']
You should probably TRAIN this model on a down-stream task to be able to use it for predictions and inference.
CustomModel(
  (pretrained_model): AlbertModel(
    (embeddings): AlbertEmbeddings(
      (word_embeddings): Embedding(21128, 128, padding_idx=0)
      (position_embeddings): Embedding(512, 128)
      (token_type_embeddings): Embedding(2, 128)
      (LayerNorm): LayerNorm((128,), eps=1e-12, elementwise_affine=True)
      (dropout): Dropout(p=0.0, inplace=False)
    )
    (encoder): AlbertTransformer(
      (embedding_hidden_mapping_in): Linear(in_features=128, out_features=312, bias=True)
      (albert_layer_groups): ModuleList(
        (0): AlbertLayerGroup(
          (albert_layers): ModuleList(
            (0): AlbertLayer(
              (full_layer_layer_norm): LayerNorm((312,), eps=1e-12, elementwise_affine=True)
              (attention): AlbertAttention(
                (query): Linear(in_features=312, out_features=312, bias=True)
                (key): Linear(in_features=312, out_features=312, bias=True)
                (value): Linear(in_features=312, out_features=312, bias=True)
                (attention_dropout): Dropout(p=0.0, inplace=False)
                (output_dropout): Dropout(p=0.0, inplace=False)
                (dense): Linear(in_features=312, out_features=312, bias=True)
                (LayerNorm): LayerNorm((312,), eps=1e-12, elementwise_affine=True)
              )
              (ffn): Linear(in_features=312, out_features=1248, bias=True)
              (ffn_output): Linear(in_features=1248, out_features=312, bias=True)
              (activation): GELUActivation()
              (dropout): Dropout(p=0.0, inplace=False)
            )
          )
        )
      )
    )
    (pooler): Linear(in_features=312, out_features=312, bias=True)
    (pooler_activation): Tanh()
  )
  (fc_dropout): Dropout(p=0.5, inplace=False)
  (fc): Linear(in_features=312, out_features=15, bias=True)
)
pretrained_model.embeddings.word_embeddings.weight False
pretrained_model.embeddings.position_embeddings.weight False
pretrained_model.embeddings.token_type_embeddings.weight False
pretrained_model.embeddings.LayerNorm.weight False
pretrained_model.embeddings.LayerNorm.bias False
pretrained_model.encoder.embedding_hidden_mapping_in.weight False
pretrained_model.encoder.embedding_hidden_mapping_in.bias False
…
ight', 'predictions.LayerNorm.bias']
- This IS expected if you are initializing AlbertModel from the checkpoint of a model trained on another task or with another architecture (e.g. initializing a BertForSequenceClassification model from a BertForPreTraining model).
- This IS NOT expected if you are initializing AlbertModel from the checkpoint of a model that you expect to be exactly identical (initializing a BertForSequenceClassification model from a BertForSequenceClassification model).
CustomModel(
  (pretrained_model): AlbertModel(
    (embeddings): AlbertEmbeddings(
      (word_embeddings): Embedding(21128, 128, padding_idx=0)
      (position_embeddings): Embedding(512, 128)
      (token_type_embeddings): Embedding(2, 128)
      (LayerNorm): LayerNorm((128,), eps=1e-12, elementwise_affine=True)
      (dropout): Dropout(p=0.0, inplace=False)
    )
    (encoder): AlbertTransformer(
      (embedding_hidden_mapping_in): Linear(in_features=128, out_features=384, bias=True)
      (albert_layer_groups): ModuleList(
        (0): AlbertLayerGroup(
          (albert_layers): ModuleList(
            (0): AlbertLayer(
              (full_layer_layer_norm): LayerNorm((384,), eps=1e-12, elementwise_affine=True)
              (attention): AlbertAttention(
                (query): Linear(in_features=384, out_features=384, bias=True)
                (key): Linear(in_features=384, out_features=384, bias=True)
                (value): Linear(in_features=384, out_features=384, bias=True)
                (attention_dropout): Dropout(p=0.0, inplace=False)
                (output_dropout): Dropout(p=0.0, inplace=False)
                (dense): Linear(in_features=384, out_features=384, bias=True)
                (LayerNorm): LayerNorm((384,), eps=1e-12, elementwise_affine=True)
              )
              (ffn): Linear(in_features=384, out_features=1536, bias=True)
              (ffn_output): Linear(in_features=1536, out_features=384, bias=True)
              (activation): GELUActivation()
              (dropout): Dropout(p=0.0, inplace=False)
            )
          )
        )
      )
    )
    (pooler): Linear(in_features=384, out_features=384, bias=True)
    (pooler_activation): Tanh()
  )
  (fc_dropout): Dropout(p=0.5, inplace=False)
  (fc): Linear(in_features=384, out_features=15, bias=True)
)
pretrained_model.embeddings.word_embeddings.weight False
pretrained_model.embeddings.position_embeddings.weight False
pretrained_model.embeddings.token_type_embeddings.weight False
pretrained_model.embeddings.LayerNorm.weight False
pretrained_model.embeddings.LayerNorm.bias False
pretrained_model.encoder.embedding_hidden_mapping_in.weight False
pretrained_model.encoder.embedding_hidden_mapping_in.bias False
…
ias', 'encoder.layer.0.intermediate.dense.bias', 'encoder.layer.2.attention.self.value.weight', 'encoder.layer.1.attention.self.key.weight', 'encoder.layer.2.intermediate.dense.bias', 'encoder.layer.2.output.dense.bias', 'encoder.layer.0.attention.self.value.bias', 'encoder.layer.1.attention.self.value.weight', 'pooler.dense.bias', 'encoder.layer.0.attention.self.query.weight']
You should probably TRAIN this model on a down-stream task to be able to use it for predictions and inference.
CustomModel(
  (pretrained_model): RobertaModel(
    (embeddings): RobertaEmbeddings(
      (word_embeddings): Embedding(8021, 312, padding_idx=1)
      (position_embeddings): Embedding(512, 312, padding_idx=1)
      (token_type_embeddings): Embedding(2, 312)
      (LayerNorm): LayerNorm((312,), eps=1e-12, elementwise_affine=True)
      (dropout): Dropout(p=0.1, inplace=False)
    )
    (encoder): RobertaEncoder(
      (layer): ModuleList(
        (0): RobertaLayer(
          (attention): RobertaAttention(
            (self): RobertaSelfAttention(
              (query): Linear(in_features=312, out_features=312, bias=True)
              (key): Linear(in_features=312, out_features=312, bias=True)
              (value): Linear(in_features=312, out_features=312, bias=True)
              (dropout): Dropout(p=0.1, inplace=False)
            )
            (output): RobertaSelfOutput(
              (dense): Linear(in_features=312, out_features=312, bias=True)
              (LayerNorm): LayerNorm((312,), eps=1e-12, elementwise_affine=True)
              (dropout): Dropout(p=0.1, inplace=False)
            )
          )
          (intermediate): RobertaIntermediate(
            (dense): Linear(in_features=312, out_features=1248, bias=True)
            (intermediate_act_fn): GELUActivation()
          )
          (output): RobertaOutput(
            (dense): Linear(in_features=1248, out_features=312, bias=True)
            (LayerNorm): LayerNorm((312,), eps=1e-12, elementwise_affine=True)
            (dropout): Dropout(p=0.1, inplace=False)
          )
        )
        (1): RobertaLayer(
          (attention): RobertaAttention(
            (self): RobertaSelfAttention(
              (query): Linear(in_features=312, out_features=312, bias=True)
              (key): Linear(in_features=312, out_features=312, bias=True)
              (value): Linear(in_features=312, out_features=312, bias=True)
              (dropout): Dropout(p=0.1, inplace=False)
            )
            (output): RobertaSelfOutput(
              (dense): Linear(in_features=312, out_features=312, bias=True)
              (LayerNorm): LayerNorm((312,), eps=1e-12, elementwise_affine=True)
              (dropout): Dropout(p=0.1, inplace=False)
            )
          )
          (intermediate): RobertaIntermediate(
            (dense): Linear(in_features=312, out_features=1248, bias=True)
            (intermediate_act_fn): GELUActivation()
          )
          (output): RobertaOutput(
            (dense): Linear(in_features=1248, out_features=312, bias=True)
            (LayerNorm): LayerNorm((312,), eps=1e-12, elementwise_affine=True)
            (dropout): Dropout(p=0.1, inplace=False)
          )
        )
        (2): RobertaLayer(
          (attention): RobertaAttention(
            (self): RobertaSelfAttention(
              (query): Linear(in_features=312, out_features=312, bias=True)
              (key): Linear(in_features=312, out_features=312, bias=True)
              (value): Linear(in_features=312, out_features=312, bias=True)
              (dropout): Dropout(p=0.1, inplace=False)
            )
            (output): RobertaSelfOutput(
              (dense): Linear(in_features=312, out_features=312, bias=True)
              (LayerNorm): LayerNorm((312,), eps=1e-12, elementwise_affine=True)
              (dropout): Dropout(p=0.1, inplace=False)
            )
          )
          (intermediate): RobertaIntermediate(
            (dense): Linear(in_features=312, out_features=1248, bias=True)
            (intermediate_act_fn): GELUActivation()
          )
          (output): RobertaOutput(
            (dense): Linear(in_features=1248, out_features=312, bias=True)
            (LayerNorm): LayerNorm((312,), eps=1e-12, elementwise_affine=True)
            (dropout): Dropout(p=0.1, inplace=False)
          )
        )
      )
    )
    (pooler): RobertaPooler(
      (dense): Linear(in_features=312, out_features=312, bias=True)
      (activation): Tanh()
    )
  )
  (fc_dropout): Dropout(p=0.5, inplace=False)
  (fc): Linear(in_features=312, out_features=15, bias=True)
)
pretrained_model.embeddings.word_embeddings.weight False
pretrained_model.embeddings.position_embeddings.weight False
pretrained_model.embeddings.token_type_embeddings.weight False
pretrained_model.embeddings.LayerNorm.weight False
pretrained_model.embeddings.LayerNorm.bias False
pretrained_model.encoder.layer.0.attention.self.query.weight False
pretrained_model.encoder.layer.0.attention.self.query.bias False
…
ttention.self.value.bias', 'encoder.layer.0.attention.self.key.weight', 'encoder.layer.0.attention.self.key.bias', 'encoder.layer.2.attention.output.LayerNorm.weight', 'encoder.layer.2.attention.output.dense.bias', 'encoder.layer.0.output.LayerNorm.bias', 'encoder.layer.1.output.dense.bias', 'encoder.layer.2.output.dense.bias', 'encoder.layer.2.attention.output.LayerNorm.bias']
You should probably TRAIN this model on a down-stream task to be able to use it for predictions and inference.
CustomModel(
  (pretrained_model): RobertaModel(
    (embeddings): RobertaEmbeddings(
      (word_embeddings): Embedding(8021, 768, padding_idx=1)
      (position_embeddings): Embedding(512, 768, padding_idx=1)
      (token_type_embeddings): Embedding(2, 768)
      (LayerNorm): LayerNorm((768,), eps=1e-12, elementwise_affine=True)
      (dropout): Dropout(p=0.1, inplace=False)
    )
    (encoder): RobertaEncoder(
      (layer): ModuleList(
        (0): RobertaLayer(
          (attention): RobertaAttention(
            (self): RobertaSelfAttention(
              (query): Linear(in_features=768, out_features=768, bias=True)
              (key): Linear(in_features=768, out_features=768, bias=True)
              (value): Linear(in_features=768, out_features=768, bias=True)
              (dropout): Dropout(p=0.1, inplace=False)
            )
            (output): RobertaSelfOutput(
              (dense): Linear(in_features=768, out_features=768, bias=True)
              (LayerNorm): LayerNorm((768,), eps=1e-12, elementwise_affine=True)
              (dropout): Dropout(p=0.1, inplace=False)
            )
          )
          (intermediate): RobertaIntermediate(
            (dense): Linear(in_features=768, out_features=3072, bias=True)
            (intermediate_act_fn): GELUActivation()
          )
          (output): RobertaOutput(
            (dense): Linear(in_features=3072, out_features=768, bias=True)
            (LayerNorm): LayerNorm((768,), eps=1e-12, elementwise_affine=True)
            (dropout): Dropout(p=0.1, inplace=False)
          )
        )
        (1): RobertaLayer(
          (attention): RobertaAttention(
            (self): RobertaSelfAttention(
              (query): Linear(in_features=768, out_features=768, bias=True)
              (key): Linear(in_features=768, out_features=768, bias=True)
              (value): Linear(in_features=768, out_features=768, bias=True)
              (dropout): Dropout(p=0.1, inplace=False)
            )
            (output): RobertaSelfOutput(
              (dense): Linear(in_features=768, out_features=768, bias=True)
              (LayerNorm): LayerNorm((768,), eps=1e-12, elementwise_affine=True)
              (dropout): Dropout(p=0.1, inplace=False)
            )
          )
          (intermediate): RobertaIntermediate(
            (dense): Linear(in_features=768, out_features=3072, bias=True)
            (intermediate_act_fn): GELUActivation()
          )
          (output): RobertaOutput(
            (dense): Linear(in_features=3072, out_features=768, bias=True)
            (LayerNorm): LayerNorm((768,), eps=1e-12, elementwise_affine=True)
            (dropout): Dropout(p=0.1, inplace=False)
          )
        )
        (2): RobertaLayer(
          (attention): RobertaAttention(
            (self): RobertaSelfAttention(
              (query): Linear(in_features=768, out_features=768, bias=True)
              (key): Linear(in_features=768, out_features=768, bias=True)
              (value): Linear(in_features=768, out_features=768, bias=True)
              (dropout): Dropout(p=0.1, inplace=False)
            )
            (output): RobertaSelfOutput(
              (dense): Linear(in_features=768, out_features=768, bias=True)
              (LayerNorm): LayerNorm((768,), eps=1e-12, elementwise_affine=True)
              (dropout): Dropout(p=0.1, inplace=False)
            )
          )
          (intermediate): RobertaIntermediate(
            (dense): Linear(in_features=768, out_features=3072, bias=True)
            (intermediate_act_fn): GELUActivation()
          )
          (output): RobertaOutput(
            (dense): Linear(in_features=3072, out_features=768, bias=True)
            (LayerNorm): LayerNorm((768,), eps=1e-12, elementwise_affine=True)
            (dropout): Dropout(p=0.1, inplace=False)
          )
        )
      )
    )
    (pooler): RobertaPooler(
      (dense): Linear(in_features=768, out_features=768, bias=True)
      (activation): Tanh()
    )
  )
  (fc_dropout): Dropout(p=0.5, inplace=False)
  (fc): Linear(in_features=768, out_features=15, bias=True)
)
pretrained_model.embeddings.word_embeddings.weight False
pretrained_model.embeddings.position_embeddings.weight False
pretrained_model.embeddings.token_type_embeddings.weight False
pretrained_model.embeddings.LayerNorm.weight False
pretrained_model.embeddings.LayerNorm.bias False
pretrained_model.encoder.layer.0.attention.self.query.weight False
pretrained_model.encoder.layer.0.attention.self.query.bias False
…
diate.dense.weight', 'encoder.layer.6.attention.output.dense.weight', 'encoder.layer.1.attention.output.LayerNorm.weight', 'encoder.layer.4.attention.output.dense.bias', 'encoder.layer.11.attention.self.key.weight', 'encoder.layer.10.output.LayerNorm.bias', 'encoder.layer.6.output.dense.bias', 'encoder.layer.8.output.dense.weight', 'encoder.layer.0.attention.output.dense.bias']
You should probably TRAIN this model on a down-stream task to be able to use it for predictions and inference.
CustomModel(
  (pretrained_model): RobertaModel(
    (embeddings): RobertaEmbeddings(
      (word_embeddings): Embedding(21128, 768, padding_idx=1)
      (position_embeddings): Embedding(512, 768, padding_idx=1)
      (token_type_embeddings): Embedding(2, 768)
      (LayerNorm): LayerNorm((768,), eps=1e-12, elementwise_affine=True)
      (dropout): Dropout(p=0.1, inplace=False)
    )
    (encoder): RobertaEncoder(
      (layer): ModuleList(
        (0): RobertaLayer(
          (attention): RobertaAttention(
            (self): RobertaSelfAttention(
              (query): Linear(in_features=768, out_features=768, bias=True)
              (key): Linear(in_features=768, out_features=768, bias=True)
              (value): Linear(in_features=768, out_features=768, bias=True)
              (dropout): Dropout(p=0.1, inplace=False)
            )
            (output): RobertaSelfOutput(
              (dense): Linear(in_features=768, out_features=768, bias=True)
              (LayerNorm): LayerNorm((768,), eps=1e-12, elementwise_affine=True)
              (dropout): Dropout(p=0.1, inplace=False)
            )
          )
          (intermediate): RobertaIntermediate(
            (dense): Linear(in_features=768, out_features=3072, bias=True)
            (intermediate_act_fn): GELUActivation()
          )
          (output): RobertaOutput(
            (dense): Linear(in_features=3072, out_features=768, bias=True)
            (LayerNorm): LayerNorm((768,), eps=1e-12, elementwise_affine=True)
            (dropout): Dropout(p=0.1, inplace=False)
          )
        )
        (1): RobertaLayer(
          (attention): RobertaAttention(
            (self): RobertaSelfAttention(
              (query): Linear(in_features=768, out_features=768, bias=True)
              (key): Linear(in_features=768, out_features=768, bias=True)
              (value): Linear(in_features=768, out_features=768, bias=True)
              (dropout): Dropout(p=0.1, inplace=False)
            )
            (output): RobertaSelfOutput(
              (dense): Linear(in_features=768, out_features=768, bias=True)
              (LayerNorm): LayerNorm((768,), eps=1e-12, elementwise_affine=True)
              (dropout): Dropout(p=0.1, inplace=False)
            )
          )
          (intermediate): RobertaIntermediate(
            (dense): Linear(in_features=768, out_features=3072, bias=True)
            (intermediate_act_fn): GELUActivation()
          )
          (output): RobertaOutput(
            (dense): Linear(in_features=3072, out_features=768, bias=True)
            (LayerNorm): LayerNorm((768,), eps=1e-12, elementwise_affine=True)
            (dropout): Dropout(p=0.1, inplace=False)
          )
        )
        (2): RobertaLayer(
          (attention): RobertaAttention(
            (self): RobertaSelfAttention(
              (query): Linear(in_features=768, out_features=768, bias=True)
              (key): Linear(in_features=768, out_features=768, bias=True)
              (value): Linear(in_features=768, out_features=768, bias=True)
              (dropout): Dropout(p=0.1, inplace=False)
            )
            (output): RobertaSelfOutput(
              (dense): Linear(in_features=768, out_features=768, bias=True)
              (LayerNorm): LayerNorm((768,), eps=1e-12, elementwise_affine=True)
              (dropout): Dropout(p=0.1, inplace=False)
            )
          )
          (intermediate): RobertaIntermediate(
            (dense): Linear(in_features=768, out_features=3072, bias=True)
            (intermediate_act_fn): GELUActivation()
          )
          (output): RobertaOutput(
            (dense): Linear(in_features=3072, out_features=768, bias=True)
            (LayerNorm): LayerNorm((768,), eps=1e-12, elementwise_affine=True)
            (dropout): Dropout(p=0.1, inplace=False)
          )
        )
        (3): RobertaLayer(
          (attention): RobertaAttention(
            (self): RobertaSelfAttention(
              (query): Linear(in_features=768, out_features=768, bias=True)
              (key): Linear(in_features=768, out_features=768, bias=True)
              (value): Linear(in_features=768, out_features=768, bias=True)
              (dropout): Dropout(p=0.1, inplace=False)
            )
            (output): RobertaSelfOutput(
              (dense): Linear(in_features=768, out_features=768, bias=True)
              (LayerNorm): LayerNorm((768,), eps=1e-12, elementwise_affine=True)
              (dropout): Dropout(p=0.1, inplace=False)
            )
          )
          (intermediate): RobertaIntermediate(
            (dense): Linear(in_features=768, out_features=3072, bias=True)
            (intermediate_act_fn): GELUActivation()
          )
          (output): RobertaOutput(
            (dense): Linear(in_features=3072, out_features=768, bias=True)
            (LayerNorm): LayerNorm((768,), eps=1e-12, elementwise_affine=True)
            (dropout): Dropout(p=0.1, inplace=False)
          )
        )
        (4): RobertaLayer(
          (attention): RobertaAttention(
            (self): RobertaSelfAttention(
              (query): Linear(in_features=768, out_features=768, bias=True)
              (key): Linear(in_features=768, out_features=768, bias=True)
              (value): Linear(in_features=768, out_features=768, bias=True)
              (dropout): Dropout(p=0.1, inplace=False)
            )
            (output): RobertaSelfOutput(
              (dense): Linear(in_features=768, out_features=768, bias=True)
              (LayerNorm): LayerNorm((768,), eps=1e-12, elementwise_affine=True)
              (dropout): Dropout(p=0.1, inplace=False)
            )
          )
          (intermediate): RobertaIntermediate(
            (dense): Linear(in_features=768, out_features=3072, bias=True)
            (intermediate_act_fn): GELUActivation()
          )
          (output): RobertaOutput(
            (dense): Linear(in_features=3072, out_features=768, bias=True)
            (LayerNorm): LayerNorm((768,), eps=1e-12, elementwise_affine=True)
            (dropout): Dropout(p=0.1, inplace=False)
          )
        )
        (5): RobertaLayer(
          (attention): RobertaAttention(
            (self): RobertaSelfAttention(
              (query): Linear(in_features=768, out_features=768, bias=True)
              (key): Linear(in_features=768, out_features=768, bias=True)
              (value): Linear(in_features=768, out_features=768, bias=True)
              (dropout): Dropout(p=0.1, inplace=False)
            )
            (output): RobertaSelfOutput(
              (dense): Linear(in_features=768, out_features=768, bias=True)
              (LayerNorm): LayerNorm((768,), eps=1e-12, elementwise_affine=True)
              (dropout): Dropout(p=0.1, inplace=False)
            )
          )
          (intermediate): RobertaIntermediate(
            (dense): Linear(in_features=768, out_features=3072, bias=True)
            (intermediate_act_fn): GELUActivation()
          )
          (output): RobertaOutput(
            (dense): Linear(in_features=3072, out_features=768, bias=True)
            (LayerNorm): LayerNorm((768,), eps=1e-12, elementwise_affine=True)
            (dropout): Dropout(p=0.1, inplace=False)
          )
        )
        (6): RobertaLayer(
          (attention): RobertaAttention(
            (self): RobertaSelfAttention(
              (query): Linear(in_features=768, out_features=768, bias=True)
              (key): Linear(in_features=768, out_features=768, bias=True)
              (value): Linear(in_features=768, out_features=768, bias=True)
              (dropout): Dropout(p=0.1, inplace=False)
            )
            (output): RobertaSelfOutput(
              (dense): Linear(in_features=768, out_features=768, bias=True)
              (LayerNorm): LayerNorm((768,), eps=1e-12, elementwise_affine=True)
              (dropout): Dropout(p=0.1, inplace=False)
            )
          )
          (intermediate): RobertaIntermediate(
            (dense): Linear(in_features=768, out_features=3072, bias=True)
            (intermediate_act_fn): GELUActivation()
          )
          (output): RobertaOutput(
            (dense): Linear(in_features=3072, out_features=768, bias=True)
            (LayerNorm): LayerNorm((768,), eps=1e-12, elementwise_affine=True)
            (dropout): Dropout(p=0.1, inplace=False)
          )
        )
        (7): RobertaLayer(
          (attention): RobertaAttention(
            (self): RobertaSelfAttention(
              (query): Linear(in_features=768, out_features=768, bias=True)
              (key): Linear(in_features=768, out_features=768, bias=True)
              (value): Linear(in_features=768, out_features=768, bias=True)
              (dropout): Dropout(p=0.1, inplace=False)
            )
            (output): RobertaSelfOutput(
              (dense): Linear(in_features=768, out_features=768, bias=True)
              (LayerNorm): LayerNorm((768,), eps=1e-12, elementwise_affine=True)
              (dropout): Dropout(p=0.1, inplace=False)
            )
          )
          (intermediate): RobertaIntermediate(
            (dense): Linear(in_features=768, out_features=3072, bias=True)
            (intermediate_act_fn): GELUActivation()
          )
          (output): RobertaOutput(
            (dense): Linear(in_features=3072, out_features=768, bias=True)
            (LayerNorm): LayerNorm((768,), eps=1e-12, elementwise_affine=True)
            (dropout): Dropout(p=0.1, inplace=False)
          )
        )
        (8): RobertaLayer(
          (attention): RobertaAttention(
            (self): RobertaSelfAttention(
              (query): Linear(in_features=768, out_features=768, bias=True)
              (key): Linear(in_features=768, out_features=768, bias=True)
              (value): Linear(in_features=768, out_features=768, bias=True)
              (dropout): Dropout(p=0.1, inplace=False)
            )
            (output): RobertaSelfOutput(
              (dense): Linear(in_features=768, out_features=768, bias=True)
              (LayerNorm): LayerNorm((768,), eps=1e-12, elementwise_affine=True)
              (dropout): Dropout(p=0.1, inplace=False)
            )
          )
          (intermediate): RobertaIntermediate(
            (dense): Linear(in_features=768, out_features=3072, bias=True)
            (intermediate_act_fn): GELUActivation()
          )
          (output): RobertaOutput(
            (dense): Linear(in_features=3072, out_features=768, bias=True)
            (LayerNorm): LayerNorm((768,), eps=1e-12, elementwise_affine=True)
            (dropout): Dropout(p=0.1, inplace=False)
          )
        )
        (9): RobertaLayer(
          (attention): RobertaAttention(
            (self): RobertaSelfAttention(
              (query): Linear(in_features=768, out_features=768, bias=True)
              (key): Linear(in_features=768, out_features=768, bias=True)
              (value): Linear(in_features=768, out_features=768, bias=True)
              (dropout): Dropout(p=0.1, inplace=False)
            )
            (output): RobertaSelfOutput(
              (dense): Linear(in_features=768, out_features=768, bias=True)
              (LayerNorm): LayerNorm((768,), eps=1e-12, elementwise_affine=True)
              (dropout): Dropout(p=0.1, inplace=False)
            )
          )
          (intermediate): RobertaIntermediate(
            (dense): Linear(in_features=768, out_features=3072, bias=True)
            (intermediate_act_fn): GELUActivation()
          )
          (output): RobertaOutput(
            (dense): Linear(in_features=3072, out_features=768, bias=True)
            (LayerNorm): LayerNorm((768,), eps=1e-12, elementwise_affine=True)
            (dropout): Dropout(p=0.1, inplace=False)
          )
        )
        (10): RobertaLayer(
          (attention): RobertaAttention(
            (self): RobertaSelfAttention(
              (query): Linear(in_features=768, out_features=768, bias=True)
              (key): Linear(in_features=768, out_features=768, bias=True)
              (value): Linear(in_features=768, out_features=768, bias=True)
              (dropout): Dropout(p=0.1, inplace=False)
            )
            (output): RobertaSelfOutput(
              (dense): Linear(in_features=768, out_features=768, bias=True)
              (LayerNorm): LayerNorm((768,), eps=1e-12, elementwise_affine=True)
              (dropout): Dropout(p=0.1, inplace=False)
            )
          )
          (intermediate): RobertaIntermediate(
            (dense): Linear(in_features=768, out_features=3072, bias=True)
            (intermediate_act_fn): GELUActivation()
          )
          (output): RobertaOutput(
            (dense): Linear(in_features=3072, out_features=768, bias=True)
            (LayerNorm): LayerNorm((768,), eps=1e-12, elementwise_affine=True)
            (dropout): Dropout(p=0.1, inplace=False)
          )
        )
        (11): RobertaLayer(
          (attention): RobertaAttention(
            (self): RobertaSelfAttention(
              (query): Linear(in_features=768, out_features=768, bias=True)
              (key): Linear(in_features=768, out_features=768, bias=True)
              (value): Linear(in_features=768, out_features=768, bias=True)
              (dropout): Dropout(p=0.1, inplace=False)
            )
            (output): RobertaSelfOutput(
              (dense): Linear(in_features=768, out_features=768, bias=True)
              (LayerNorm): LayerNorm((768,), eps=1e-12, elementwise_affine=True)
              (dropout): Dropout(p=0.1, inplace=False)
            )
          )
          (intermediate): RobertaIntermediate(
            (dense): Linear(in_features=768, out_features=3072, bias=True)
            (intermediate_act_fn): GELUActivation()
          )
          (output): RobertaOutput(
            (dense): Linear(in_features=3072, out_features=768, bias=True)
            (LayerNorm): LayerNorm((768,), eps=1e-12, elementwise_affine=True)
            (dropout): Dropout(p=0.1, inplace=False)
          )
        )
      )
    )
    (pooler): RobertaPooler(
      (dense): Linear(in_features=768, out_features=768, bias=True)
      (activation): Tanh()
    )
  )
  (fc_dropout): Dropout(p=0.5, inplace=False)
  (fc): Linear(in_features=768, out_features=15, bias=True)
)
pretrained_model.embeddings.word_embeddings.weight False
pretrained_model.embeddings.position_embeddings.weight False
pretrained_model.embeddings.token_type_embeddings.weight False
pretrained_model.embeddings.LayerNorm.weight False
pretrained_model.embeddings.LayerNorm.bias False
pretrained_model.encoder.layer.0.attention.self.query.weight False
pretrained_model.encoder.layer.0.attention.self.query.bias False
…
oder.layer.8.attention.self.value.weight', 'encoder.layer.12.output.LayerNorm.weight', 'encoder.layer.15.intermediate.dense.weight', 'encoder.layer.4.attention.output.LayerNorm.weight', 'encoder.layer.19.intermediate.dense.bias', 'encoder.layer.7.attention.output.dense.bias', 'encoder.layer.8.attention.output.LayerNorm.weight', 'encoder.layer.9.attention.output.LayerNorm.bias']
You should probably TRAIN this model on a down-stream task to be able to use it for predictions and inference.
CustomModel(
  (pretrained_model): RobertaModel(
    (embeddings): RobertaEmbeddings(
      (word_embeddings): Embedding(21128, 1024, padding_idx=1)
      (position_embeddings): Embedding(512, 1024, padding_idx=1)
      (token_type_embeddings): Embedding(2, 1024)
      (LayerNorm): LayerNorm((1024,), eps=1e-12, elementwise_affine=True)
      (dropout): Dropout(p=0.1, inplace=False)
    )
    (encoder): RobertaEncoder(
      (layer): ModuleList(
        (0): RobertaLayer(
          (attention): RobertaAttention(
            (self): RobertaSelfAttention(
              (query): Linear(in_features=1024, out_features=1024, bias=True)
              (key): Linear(in_features=1024, out_features=1024, bias=True)
              (value): Linear(in_features=1024, out_features=1024, bias=True)
              (dropout): Dropout(p=0.1, inplace=False)
            )
            (output): RobertaSelfOutput(
              (dense): Linear(in_features=1024, out_features=1024, bias=True)
              (LayerNorm): LayerNorm((1024,), eps=1e-12, elementwise_affine=True)
              (dropout): Dropout(p=0.1, inplace=False)
            )
          )
          (intermediate): RobertaIntermediate(
            (dense): Linear(in_features=1024, out_features=4096, bias=True)
            (intermediate_act_fn): GELUActivation()
          )
          (output): RobertaOutput(
            (dense): Linear(in_features=4096, out_features=1024, bias=True)
            (LayerNorm): LayerNorm((1024,), eps=1e-12, elementwise_affine=True)
            (dropout): Dropout(p=0.1, inplace=False)
          )
        )
        (1): RobertaLayer(
          (attention): RobertaAttention(
            (self): RobertaSelfAttention(
              (query): Linear(in_features=1024, out_features=1024, bias=True)
              (key): Linear(in_features=1024, out_features=1024, bias=True)
              (value): Linear(in_features=1024, out_features=1024, bias=True)
              (dropout): Dropout(p=0.1, inplace=False)
            )
            (output): RobertaSelfOutput(
              (dense): Linear(in_features=1024, out_features=1024, bias=True)
              (LayerNorm): LayerNorm((1024,), eps=1e-12, elementwise_affine=True)
              (dropout): Dropout(p=0.1, inplace=False)
            )
          )
          (intermediate): RobertaIntermediate(
            (dense): Linear(in_features=1024, out_features=4096, bias=True)
            (intermediate_act_fn): GELUActivation()
          )
          (output): RobertaOutput(
            (dense): Linear(in_features=4096, out_features=1024, bias=True)
            (LayerNorm): LayerNorm((1024,), eps=1e-12, elementwise_affine=True)
            (dropout): Dropout(p=0.1, inplace=False)
          )
        )
        (2): RobertaLayer(
          (attention): RobertaAttention(
            (self): RobertaSelfAttention(
              (query): Linear(in_features=1024, out_features=1024, bias=True)
              (key): Linear(in_features=1024, out_features=1024, bias=True)
              (value): Linear(in_features=1024, out_features=1024, bias=True)
              (dropout): Dropout(p=0.1, inplace=False)
            )
            (output): RobertaSelfOutput(
              (dense): Linear(in_features=1024, out_features=1024, bias=True)
              (LayerNorm): LayerNorm((1024,), eps=1e-12, elementwise_affine=True)
              (dropout): Dropout(p=0.1, inplace=False)
            )
          )
          (intermediate): RobertaIntermediate(
            (dense): Linear(in_features=1024, out_features=4096, bias=True)
            (intermediate_act_fn): GELUActivation()
          )
          (output): RobertaOutput(
            (dense): Linear(in_features=4096, out_features=1024, bias=True)
            (LayerNorm): LayerNorm((1024,), eps=1e-12, elementwise_affine=True)
            (dropout): Dropout(p=0.1, inplace=False)
          )
        )
        (3): RobertaLayer(
          (attention): RobertaAttention(
            (self): RobertaSelfAttention(
              (query): Linear(in_features=1024, out_features=1024, bias=True)
              (key): Linear(in_features=1024, out_features=1024, bias=True)
              (value): Linear(in_features=1024, out_features=1024, bias=True)
              (dropout): Dropout(p=0.1, inplace=False)
            )
            (output): RobertaSelfOutput(
              (dense): Linear(in_features=1024, out_features=1024, bias=True)
              (LayerNorm): LayerNorm((1024,), eps=1e-12, elementwise_affine=True)
              (dropout): Dropout(p=0.1, inplace=False)
            )
          )
          (intermediate): RobertaIntermediate(
            (dense): Linear(in_features=1024, out_features=4096, bias=True)
            (intermediate_act_fn): GELUActivation()
          )
          (output): RobertaOutput(
            (dense): Linear(in_features=4096, out_features=1024, bias=True)
            (LayerNorm): LayerNorm((1024,), eps=1e-12, elementwise_affine=True)
            (dropout): Dropout(p=0.1, inplace=False)
          )
        )
        (4): RobertaLayer(
          (attention): RobertaAttention(
            (self): RobertaSelfAttention(
              (query): Linear(in_features=1024, out_features=1024, bias=True)
              (key): Linear(in_features=1024, out_features=1024, bias=True)
              (value): Linear(in_features=1024, out_features=1024, bias=True)
              (dropout): Dropout(p=0.1, inplace=False)
            )
            (output): RobertaSelfOutput(
              (dense): Linear(in_features=1024, out_features=1024, bias=True)
              (LayerNorm): LayerNorm((1024,), eps=1e-12, elementwise_affine=True)
              (dropout): Dropout(p=0.1, inplace=False)
            )
          )
          (intermediate): RobertaIntermediate(
            (dense): Linear(in_features=1024, out_features=4096, bias=True)
            (intermediate_act_fn): GELUActivation()
          )
          (output): RobertaOutput(
            (dense): Linear(in_features=4096, out_features=1024, bias=True)
            (LayerNorm): LayerNorm((1024,), eps=1e-12, elementwise_affine=True)
            (dropout): Dropout(p=0.1, inplace=False)
          )
        )
        (5): RobertaLayer(
          (attention): RobertaAttention(
            (self): RobertaSelfAttention(
              (query): Linear(in_features=1024, out_features=1024, bias=True)
              (key): Linear(in_features=1024, out_features=1024, bias=True)
              (value): Linear(in_features=1024, out_features=1024, bias=True)
              (dropout): Dropout(p=0.1, inplace=False)
            )
            (output): RobertaSelfOutput(
              (dense): Linear(in_features=1024, out_features=1024, bias=True)
              (LayerNorm): LayerNorm((1024,), eps=1e-12, elementwise_affine=True)
              (dropout): Dropout(p=0.1, inplace=False)
            )
          )
          (intermediate): RobertaIntermediate(
            (dense): Linear(in_features=1024, out_features=4096, bias=True)
            (intermediate_act_fn): GELUActivation()
          )
          (output): RobertaOutput(
            (dense): Linear(in_features=4096, out_features=1024, bias=True)
            (LayerNorm): LayerNorm((1024,), eps=1e-12, elementwise_affine=True)
            (dropout): Dropout(p=0.1, inplace=False)
          )
        )
        (6): RobertaLayer(
          (attention): RobertaAttention(
            (self): RobertaSelfAttention(
              (query): Linear(in_features=1024, out_features=1024, bias=True)
              (key): Linear(in_features=1024, out_features=1024, bias=True)
              (value): Linear(in_features=1024, out_features=1024, bias=True)
              (dropout): Dropout(p=0.1, inplace=False)
            )
            (output): RobertaSelfOutput(
              (dense): Linear(in_features=1024, out_features=1024, bias=True)
              (LayerNorm): LayerNorm((1024,), eps=1e-12, elementwise_affine=True)
              (dropout): Dropout(p=0.1, inplace=False)
            )
          )
          (intermediate): RobertaIntermediate(
            (dense): Linear(in_features=1024, out_features=4096, bias=True)
            (intermediate_act_fn): GELUActivation()
          )
          (output): RobertaOutput(
            (dense): Linear(in_features=4096, out_features=1024, bias=True)
            (LayerNorm): LayerNorm((1024,), eps=1e-12, elementwise_affine=True)
            (dropout): Dropout(p=0.1, inplace=False)
          )
        )
        (7): RobertaLayer(
          (attention): RobertaAttention(
            (self): RobertaSelfAttention(
              (query): Linear(in_features=1024, out_features=1024, bias=True)
              (key): Linear(in_features=1024, out_features=1024, bias=True)
              (value): Linear(in_features=1024, out_features=1024, bias=True)
              (dropout): Dropout(p=0.1, inplace=False)
            )
            (output): RobertaSelfOutput(
              (dense): Linear(in_features=1024, out_features=1024, bias=True)
              (LayerNorm): LayerNorm((1024,), eps=1e-12, elementwise_affine=True)
              (dropout): Dropout(p=0.1, inplace=False)
            )
          )
          (intermediate): RobertaIntermediate(
            (dense): Linear(in_features=1024, out_features=4096, bias=True)
            (intermediate_act_fn): GELUActivation()
          )
          (output): RobertaOutput(
            (dense): Linear(in_features=4096, out_features=1024, bias=True)
            (LayerNorm): LayerNorm((1024,), eps=1e-12, elementwise_affine=True)
            (dropout): Dropout(p=0.1, inplace=False)
          )
        )
        (8): RobertaLayer(
          (attention): RobertaAttention(
            (self): RobertaSelfAttention(
              (query): Linear(in_features=1024, out_features=1024, bias=True)
              (key): Linear(in_features=1024, out_features=1024, bias=True)
              (value): Linear(in_features=1024, out_features=1024, bias=True)
              (dropout): Dropout(p=0.1, inplace=False)
            )
            (output): RobertaSelfOutput(
              (dense): Linear(in_features=1024, out_features=1024, bias=True)
              (LayerNorm): LayerNorm((1024,), eps=1e-12, elementwise_affine=True)
              (dropout): Dropout(p=0.1, inplace=False)
            )
          )
          (intermediate): RobertaIntermediate(
            (dense): Linear(in_features=1024, out_features=4096, bias=True)
            (intermediate_act_fn): GELUActivation()
          )
          (output): RobertaOutput(
            (dense): Linear(in_features=4096, out_features=1024, bias=True)
            (LayerNorm): LayerNorm((1024,), eps=1e-12, elementwise_affine=True)
            (dropout): Dropout(p=0.1, inplace=False)
          )
        )
        (9): RobertaLayer(
          (attention): RobertaAttention(
            (self): RobertaSelfAttention(
              (query): Linear(in_features=1024, out_features=1024, bias=True)
              (key): Linear(in_features=1024, out_features=1024, bias=True)
              (value): Linear(in_features=1024, out_features=1024, bias=True)
              (dropout): Dropout(p=0.1, inplace=False)
            )
            (output): RobertaSelfOutput(
              (dense): Linear(in_features=1024, out_features=1024, bias=True)
              (LayerNorm): LayerNorm((1024,), eps=1e-12, elementwise_affine=True)
              (dropout): Dropout(p=0.1, inplace=False)
            )
          )
          (intermediate): RobertaIntermediate(
            (dense): Linear(in_features=1024, out_features=4096, bias=True)
            (intermediate_act_fn): GELUActivation()
          )
          (output): RobertaOutput(
            (dense): Linear(in_features=4096, out_features=1024, bias=True)
            (LayerNorm): LayerNorm((1024,), eps=1e-12, elementwise_affine=True)
            (dropout): Dropout(p=0.1, inplace=False)
          )
        )
        (10): RobertaLayer(
          (attention): RobertaAttention(
            (self): RobertaSelfAttention(
              (query): Linear(in_features=1024, out_features=1024, bias=True)
              (key): Linear(in_features=1024, out_features=1024, bias=True)
              (value): Linear(in_features=1024, out_features=1024, bias=True)
              (dropout): Dropout(p=0.1, inplace=False)
            )
            (output): RobertaSelfOutput(
              (dense): Linear(in_features=1024, out_features=1024, bias=True)
              (LayerNorm): LayerNorm((1024,), eps=1e-12, elementwise_affine=True)
              (dropout): Dropout(p=0.1, inplace=False)
            )
          )
          (intermediate): RobertaIntermediate(
            (dense): Linear(in_features=1024, out_features=4096, bias=True)
            (intermediate_act_fn): GELUActivation()
          )
          (output): RobertaOutput(
            (dense): Linear(in_features=4096, out_features=1024, bias=True)
            (LayerNorm): LayerNorm((1024,), eps=1e-12, elementwise_affine=True)
            (dropout): Dropout(p=0.1, inplace=False)
          )
        )
        (11): RobertaLayer(
          (attention): RobertaAttention(
            (self): RobertaSelfAttention(
              (query): Linear(in_features=1024, out_features=1024, bias=True)
              (key): Linear(in_features=1024, out_features=1024, bias=True)
              (value): Linear(in_features=1024, out_features=1024, bias=True)
              (dropout): Dropout(p=0.1, inplace=False)
            )
            (output): RobertaSelfOutput(
              (dense): Linear(in_features=1024, out_features=1024, bias=True)
              (LayerNorm): LayerNorm((1024,), eps=1e-12, elementwise_affine=True)
              (dropout): Dropout(p=0.1, inplace=False)
            )
          )
          (intermediate): RobertaIntermediate(
            (dense): Linear(in_features=1024, out_features=4096, bias=True)
            (intermediate_act_fn): GELUActivation()
          )
          (output): RobertaOutput(
            (dense): Linear(in_features=4096, out_features=1024, bias=True)
            (LayerNorm): LayerNorm((1024,), eps=1e-12, elementwise_affine=True)
            (dropout): Dropout(p=0.1, inplace=False)
          )
        )
        (12): RobertaLayer(
          (attention): RobertaAttention(
            (self): RobertaSelfAttention(
              (query): Linear(in_features=1024, out_features=1024, bias=True)
              (key): Linear(in_features=1024, out_features=1024, bias=True)
              (value): Linear(in_features=1024, out_features=1024, bias=True)
              (dropout): Dropout(p=0.1, inplace=False)
            )
            (output): RobertaSelfOutput(
              (dense): Linear(in_features=1024, out_features=1024, bias=True)
              (LayerNorm): LayerNorm((1024,), eps=1e-12, elementwise_affine=True)
              (dropout): Dropout(p=0.1, inplace=False)
            )
          )
          (intermediate): RobertaIntermediate(
            (dense): Linear(in_features=1024, out_features=4096, bias=True)
            (intermediate_act_fn): GELUActivation()
          )
          (output): RobertaOutput(
            (dense): Linear(in_features=4096, out_features=1024, bias=True)
            (LayerNorm): LayerNorm((1024,), eps=1e-12, elementwise_affine=True)
            (dropout): Dropout(p=0.1, inplace=False)
          )
        )
        (13): RobertaLayer(
          (attention): RobertaAttention(
            (self): RobertaSelfAttention(
              (query): Linear(in_features=1024, out_features=1024, bias=True)
              (key): Linear(in_features=1024, out_features=1024, bias=True)
              (value): Linear(in_features=1024, out_features=1024, bias=True)
              (dropout): Dropout(p=0.1, inplace=False)
            )
            (output): RobertaSelfOutput(
              (dense): Linear(in_features=1024, out_features=1024, bias=True)
              (LayerNorm): LayerNorm((1024,), eps=1e-12, elementwise_affine=True)
              (dropout): Dropout(p=0.1, inplace=False)
            )
          )
          (intermediate): RobertaIntermediate(
            (dense): Linear(in_features=1024, out_features=4096, bias=True)
            (intermediate_act_fn): GELUActivation()
          )
          (output): RobertaOutput(
            (dense): Linear(in_features=4096, out_features=1024, bias=True)
            (LayerNorm): LayerNorm((1024,), eps=1e-12, elementwise_affine=True)
            (dropout): Dropout(p=0.1, inplace=False)
          )
        )
        (14): RobertaLayer(
          (attention): RobertaAttention(
            (self): RobertaSelfAttention(
              (query): Linear(in_features=1024, out_features=1024, bias=True)
              (key): Linear(in_features=1024, out_features=1024, bias=True)
              (value): Linear(in_features=1024, out_features=1024, bias=True)
              (dropout): Dropout(p=0.1, inplace=False)
            )
            (output): RobertaSelfOutput(
              (dense): Linear(in_features=1024, out_features=1024, bias=True)
              (LayerNorm): LayerNorm((1024,), eps=1e-12, elementwise_affine=True)
              (dropout): Dropout(p=0.1, inplace=False)
            )
          )
          (intermediate): RobertaIntermediate(
            (dense): Linear(in_features=1024, out_features=4096, bias=True)
            (intermediate_act_fn): GELUActivation()
          )
          (output): RobertaOutput(
            (dense): Linear(in_features=4096, out_features=1024, bias=True)
            (LayerNorm): LayerNorm((1024,), eps=1e-12, elementwise_affine=True)
            (dropout): Dropout(p=0.1, inplace=False)
          )
        )
        (15): RobertaLayer(
          (attention): RobertaAttention(
            (self): RobertaSelfAttention(
              (query): Linear(in_features=1024, out_features=1024, bias=True)
              (key): Linear(in_features=1024, out_features=1024, bias=True)
              (value): Linear(in_features=1024, out_features=1024, bias=True)
              (dropout): Dropout(p=0.1, inplace=False)
            )
            (output): RobertaSelfOutput(
              (dense): Linear(in_features=1024, out_features=1024, bias=True)
              (LayerNorm): LayerNorm((1024,), eps=1e-12, elementwise_affine=True)
              (dropout): Dropout(p=0.1, inplace=False)
            )
          )
          (intermediate): RobertaIntermediate(
            (dense): Linear(in_features=1024, out_features=4096, bias=True)
            (intermediate_act_fn): GELUActivation()
          )
          (output): RobertaOutput(
            (dense): Linear(in_features=4096, out_features=1024, bias=True)
            (LayerNorm): LayerNorm((1024,), eps=1e-12, elementwise_affine=True)
            (dropout): Dropout(p=0.1, inplace=False)
          )
        )
        (16): RobertaLayer(
          (attention): RobertaAttention(
            (self): RobertaSelfAttention(
              (query): Linear(in_features=1024, out_features=1024, bias=True)
              (key): Linear(in_features=1024, out_features=1024, bias=True)
              (value): Linear(in_features=1024, out_features=1024, bias=True)
              (dropout): Dropout(p=0.1, inplace=False)
            )
            (output): RobertaSelfOutput(
              (dense): Linear(in_features=1024, out_features=1024, bias=True)
              (LayerNorm): LayerNorm((1024,), eps=1e-12, elementwise_affine=True)
              (dropout): Dropout(p=0.1, inplace=False)
            )
          )
          (intermediate): RobertaIntermediate(
            (dense): Linear(in_features=1024, out_features=4096, bias=True)
            (intermediate_act_fn): GELUActivation()
          )
          (output): RobertaOutput(
            (dense): Linear(in_features=4096, out_features=1024, bias=True)
            (LayerNorm): LayerNorm((1024,), eps=1e-12, elementwise_affine=True)
            (dropout): Dropout(p=0.1, inplace=False)
          )
        )
        (17): RobertaLayer(
          (attention): RobertaAttention(
            (self): RobertaSelfAttention(
              (query): Linear(in_features=1024, out_features=1024, bias=True)
              (key): Linear(in_features=1024, out_features=1024, bias=True)
              (value): Linear(in_features=1024, out_features=1024, bias=True)
              (dropout): Dropout(p=0.1, inplace=False)
            )
            (output): RobertaSelfOutput(
              (dense): Linear(in_features=1024, out_features=1024, bias=True)
              (LayerNorm): LayerNorm((1024,), eps=1e-12, elementwise_affine=True)
              (dropout): Dropout(p=0.1, inplace=False)
            )
          )
          (intermediate): RobertaIntermediate(
            (dense): Linear(in_features=1024, out_features=4096, bias=True)
            (intermediate_act_fn): GELUActivation()
          )
          (output): RobertaOutput(
            (dense): Linear(in_features=4096, out_features=1024, bias=True)
            (LayerNorm): LayerNorm((1024,), eps=1e-12, elementwise_affine=True)
            (dropout): Dropout(p=0.1, inplace=False)
          )
        )
        (18): RobertaLayer(
          (attention): RobertaAttention(
            (self): RobertaSelfAttention(
              (query): Linear(in_features=1024, out_features=1024, bias=True)
              (key): Linear(in_features=1024, out_features=1024, bias=True)
              (value): Linear(in_features=1024, out_features=1024, bias=True)
              (dropout): Dropout(p=0.1, inplace=False)
            )
            (output): RobertaSelfOutput(
              (dense): Linear(in_features=1024, out_features=1024, bias=True)
              (LayerNorm): LayerNorm((1024,), eps=1e-12, elementwise_affine=True)
              (dropout): Dropout(p=0.1, inplace=False)
            )
          )
          (intermediate): RobertaIntermediate(
            (dense): Linear(in_features=1024, out_features=4096, bias=True)
            (intermediate_act_fn): GELUActivation()
          )
          (output): RobertaOutput(
            (dense): Linear(in_features=4096, out_features=1024, bias=True)
            (LayerNorm): LayerNorm((1024,), eps=1e-12, elementwise_affine=True)
            (dropout): Dropout(p=0.1, inplace=False)
          )
        )
        (19): RobertaLayer(
          (attention): RobertaAttention(
            (self): RobertaSelfAttention(
              (query): Linear(in_features=1024, out_features=1024, bias=True)
              (key): Linear(in_features=1024, out_features=1024, bias=True)
              (value): Linear(in_features=1024, out_features=1024, bias=True)
              (dropout): Dropout(p=0.1, inplace=False)
            )
            (output): RobertaSelfOutput(
              (dense): Linear(in_features=1024, out_features=1024, bias=True)
              (LayerNorm): LayerNorm((1024,), eps=1e-12, elementwise_affine=True)
              (dropout): Dropout(p=0.1, inplace=False)
            )
          )
          (intermediate): RobertaIntermediate(
            (dense): Linear(in_features=1024, out_features=4096, bias=True)
            (intermediate_act_fn): GELUActivation()
          )
          (output): RobertaOutput(
            (dense): Linear(in_features=4096, out_features=1024, bias=True)
            (LayerNorm): LayerNorm((1024,), eps=1e-12, elementwise_affine=True)
            (dropout): Dropout(p=0.1, inplace=False)
          )
        )
        (20): RobertaLayer(
          (attention): RobertaAttention(
            (self): RobertaSelfAttention(
              (query): Linear(in_features=1024, out_features=1024, bias=True)
              (key): Linear(in_features=1024, out_features=1024, bias=True)
              (value): Linear(in_features=1024, out_features=1024, bias=True)
              (dropout): Dropout(p=0.1, inplace=False)
            )
            (output): RobertaSelfOutput(
              (dense): Linear(in_features=1024, out_features=1024, bias=True)
              (LayerNorm): LayerNorm((1024,), eps=1e-12, elementwise_affine=True)
              (dropout): Dropout(p=0.1, inplace=False)
            )
          )
          (intermediate): RobertaIntermediate(
            (dense): Linear(in_features=1024, out_features=4096, bias=True)
            (intermediate_act_fn): GELUActivation()
          )
          (output): RobertaOutput(
            (dense): Linear(in_features=4096, out_features=1024, bias=True)
            (LayerNorm): LayerNorm((1024,), eps=1e-12, elementwise_affine=True)
            (dropout): Dropout(p=0.1, inplace=False)
          )
        )
        (21): RobertaLayer(
          (attention): RobertaAttention(
            (self): RobertaSelfAttention(
              (query): Linear(in_features=1024, out_features=1024, bias=True)
              (key): Linear(in_features=1024, out_features=1024, bias=True)
              (value): Linear(in_features=1024, out_features=1024, bias=True)
              (dropout): Dropout(p=0.1, inplace=False)
            )
            (output): RobertaSelfOutput(
              (dense): Linear(in_features=1024, out_features=1024, bias=True)
              (LayerNorm): LayerNorm((1024,), eps=1e-12, elementwise_affine=True)
              (dropout): Dropout(p=0.1, inplace=False)
            )
          )
          (intermediate): RobertaIntermediate(
            (dense): Linear(in_features=1024, out_features=4096, bias=True)
            (intermediate_act_fn): GELUActivation()
          )
          (output): RobertaOutput(
            (dense): Linear(in_features=4096, out_features=1024, bias=True)
            (LayerNorm): LayerNorm((1024,), eps=1e-12, elementwise_affine=True)
            (dropout): Dropout(p=0.1, inplace=False)
          )
        )
        (22): RobertaLayer(
          (attention): RobertaAttention(
            (self): RobertaSelfAttention(
              (query): Linear(in_features=1024, out_features=1024, bias=True)
              (key): Linear(in_features=1024, out_features=1024, bias=True)
              (value): Linear(in_features=1024, out_features=1024, bias=True)
              (dropout): Dropout(p=0.1, inplace=False)
            )
            (output): RobertaSelfOutput(
              (dense): Linear(in_features=1024, out_features=1024, bias=True)
              (LayerNorm): LayerNorm((1024,), eps=1e-12, elementwise_affine=True)
              (dropout): Dropout(p=0.1, inplace=False)
            )
          )
          (intermediate): RobertaIntermediate(
            (dense): Linear(in_features=1024, out_features=4096, bias=True)
            (intermediate_act_fn): GELUActivation()
          )
          (output): RobertaOutput(
            (dense): Linear(in_features=4096, out_features=1024, bias=True)
            (LayerNorm): LayerNorm((1024,), eps=1e-12, elementwise_affine=True)
            (dropout): Dropout(p=0.1, inplace=False)
          )
        )
        (23): RobertaLayer(
          (attention): RobertaAttention(
            (self): RobertaSelfAttention(
              (query): Linear(in_features=1024, out_features=1024, bias=True)
              (key): Linear(in_features=1024, out_features=1024, bias=True)
              (value): Linear(in_features=1024, out_features=1024, bias=True)
              (dropout): Dropout(p=0.1, inplace=False)
            )
            (output): RobertaSelfOutput(
              (dense): Linear(in_features=1024, out_features=1024, bias=True)
              (LayerNorm): LayerNorm((1024,), eps=1e-12, elementwise_affine=True)
              (dropout): Dropout(p=0.1, inplace=False)
            )
          )
          (intermediate): RobertaIntermediate(
            (dense): Linear(in_features=1024, out_features=4096, bias=True)
            (intermediate_act_fn): GELUActivation()
          )
          (output): RobertaOutput(
            (dense): Linear(in_features=4096, out_features=1024, bias=True)
            (LayerNorm): LayerNorm((1024,), eps=1e-12, elementwise_affine=True)
            (dropout): Dropout(p=0.1, inplace=False)
          )
        )
      )
    )
    (pooler): RobertaPooler(
      (dense): Linear(in_features=1024, out_features=1024, bias=True)
      (activation): Tanh()
    )
  )
  (fc_dropout): Dropout(p=0.5, inplace=False)
  (fc): Linear(in_features=1024, out_features=15, bias=True)
)
pretrained_model.embeddings.word_embeddings.weight False
pretrained_model.embeddings.position_embeddings.weight False
pretrained_model.embeddings.token_type_embeddings.weight False
pretrained_model.embeddings.LayerNorm.weight False
pretrained_model.embeddings.LayerNorm.bias False
pretrained_model.encoder.layer.0.attention.self.query.weight False
pretrained_model.encoder.layer.0.attention.self.query.bias False
…
tion.output.dense.weight', 'encoder.layer.1.output.LayerNorm.bias', 'encoder.layer.0.output.LayerNorm.weight', 'encoder.layer.0.output.LayerNorm.bias', 'encoder.layer.0.attention.self.value.bias', 'encoder.layer.3.attention.self.key.weight', 'encoder.layer.2.attention.self.value.bias', 'encoder.layer.2.attention.output.dense.bias', 'encoder.layer.2.attention.self.value.weight']
You should probably TRAIN this model on a down-stream task to be able to use it for predictions and inference.
CustomModel(
  (pretrained_model): RobertaModel(
    (embeddings): RobertaEmbeddings(
      (word_embeddings): Embedding(8021, 312, padding_idx=1)
      (position_embeddings): Embedding(512, 312, padding_idx=1)
      (token_type_embeddings): Embedding(2, 312)
      (LayerNorm): LayerNorm((312,), eps=1e-12, elementwise_affine=True)
      (dropout): Dropout(p=0.1, inplace=False)
    )
    (encoder): RobertaEncoder(
      (layer): ModuleList(
        (0): RobertaLayer(
          (attention): RobertaAttention(
            (self): RobertaSelfAttention(
              (query): Linear(in_features=312, out_features=312, bias=True)
              (key): Linear(in_features=312, out_features=312, bias=True)
              (value): Linear(in_features=312, out_features=312, bias=True)
              (dropout): Dropout(p=0.1, inplace=False)
            )
            (output): RobertaSelfOutput(
              (dense): Linear(in_features=312, out_features=312, bias=True)
              (LayerNorm): LayerNorm((312,), eps=1e-12, elementwise_affine=True)
              (dropout): Dropout(p=0.1, inplace=False)
            )
          )
          (intermediate): RobertaIntermediate(
            (dense): Linear(in_features=312, out_features=1248, bias=True)
            (intermediate_act_fn): GELUActivation()
          )
          (output): RobertaOutput(
            (dense): Linear(in_features=1248, out_features=312, bias=True)
            (LayerNorm): LayerNorm((312,), eps=1e-12, elementwise_affine=True)
            (dropout): Dropout(p=0.1, inplace=False)
          )
        )
        (1): RobertaLayer(
          (attention): RobertaAttention(
            (self): RobertaSelfAttention(
              (query): Linear(in_features=312, out_features=312, bias=True)
              (key): Linear(in_features=312, out_features=312, bias=True)
              (value): Linear(in_features=312, out_features=312, bias=True)
              (dropout): Dropout(p=0.1, inplace=False)
            )
            (output): RobertaSelfOutput(
              (dense): Linear(in_features=312, out_features=312, bias=True)
              (LayerNorm): LayerNorm((312,), eps=1e-12, elementwise_affine=True)
              (dropout): Dropout(p=0.1, inplace=False)
            )
          )
          (intermediate): RobertaIntermediate(
            (dense): Linear(in_features=312, out_features=1248, bias=True)
            (intermediate_act_fn): GELUActivation()
          )
          (output): RobertaOutput(
            (dense): Linear(in_features=1248, out_features=312, bias=True)
            (LayerNorm): LayerNorm((312,), eps=1e-12, elementwise_affine=True)
            (dropout): Dropout(p=0.1, inplace=False)
          )
        )
        (2): RobertaLayer(
          (attention): RobertaAttention(
            (self): RobertaSelfAttention(
              (query): Linear(in_features=312, out_features=312, bias=True)
              (key): Linear(in_features=312, out_features=312, bias=True)
              (value): Linear(in_features=312, out_features=312, bias=True)
              (dropout): Dropout(p=0.1, inplace=False)
            )
            (output): RobertaSelfOutput(
              (dense): Linear(in_features=312, out_features=312, bias=True)
              (LayerNorm): LayerNorm((312,), eps=1e-12, elementwise_affine=True)
              (dropout): Dropout(p=0.1, inplace=False)
            )
          )
          (intermediate): RobertaIntermediate(
            (dense): Linear(in_features=312, out_features=1248, bias=True)
            (intermediate_act_fn): GELUActivation()
          )
          (output): RobertaOutput(
            (dense): Linear(in_features=1248, out_features=312, bias=True)
            (LayerNorm): LayerNorm((312,), eps=1e-12, elementwise_affine=True)
            (dropout): Dropout(p=0.1, inplace=False)
          )
        )
        (3): RobertaLayer(
          (attention): RobertaAttention(
            (self): RobertaSelfAttention(
              (query): Linear(in_features=312, out_features=312, bias=True)
              (key): Linear(in_features=312, out_features=312, bias=True)
              (value): Linear(in_features=312, out_features=312, bias=True)
              (dropout): Dropout(p=0.1, inplace=False)
            )
            (output): RobertaSelfOutput(
              (dense): Linear(in_features=312, out_features=312, bias=True)
              (LayerNorm): LayerNorm((312,), eps=1e-12, elementwise_affine=True)
              (dropout): Dropout(p=0.1, inplace=False)
            )
          )
          (intermediate): RobertaIntermediate(
            (dense): Linear(in_features=312, out_features=1248, bias=True)
            (intermediate_act_fn): GELUActivation()
          )
          (output): RobertaOutput(
            (dense): Linear(in_features=1248, out_features=312, bias=True)
            (LayerNorm): LayerNorm((312,), eps=1e-12, elementwise_affine=True)
            (dropout): Dropout(p=0.1, inplace=False)
          )
        )
      )
    )
    (pooler): RobertaPooler(
      (dense): Linear(in_features=312, out_features=312, bias=True)
      (activation): Tanh()
    )
  )
  (fc_dropout): Dropout(p=0.5, inplace=False)
  (fc): Linear(in_features=312, out_features=15, bias=True)
)
pretrained_model.embeddings.word_embeddings.weight False
pretrained_model.embeddings.position_embeddings.weight False
pretrained_model.embeddings.token_type_embeddings.weight False
pretrained_model.embeddings.LayerNorm.weight False
pretrained_model.embeddings.LayerNorm.bias False
pretrained_model.encoder.layer.0.attention.self.query.weight False
pretrained_model.encoder.layer.0.attention.self.query.bias False
…
Some weights of the model checkpoint at /data0/nfs_data/zhaoxi9/pretrained_language_model/huggingface_pretrained_models/clue_xlnet_chinese_large were not used when initializing XLNetModel: ['lm_loss.bias', 'lm_loss.weight']
- This IS expected if you are initializing XLNetModel from the checkpoint of a model trained on another task or with another architecture (e.g. initializing a BertForSequenceClassification model from a BertForPreTraining model).
- This IS NOT expected if you are initializing XLNetModel from the checkpoint of a model that you expect to be exactly identical (initializing a BertForSequenceClassification model from a BertForSequenceClassification model).
CustomModel(
  (pretrained_model): XLNetModel(
    (word_embedding): Embedding(32000, 1024)
    (layer): ModuleList(
      (0): XLNetLayer(
        (rel_attn): XLNetRelativeAttention(
          (layer_norm): LayerNorm((1024,), eps=1e-12, elementwise_affine=True)
          (dropout): Dropout(p=0.1, inplace=False)
        )
        (ff): XLNetFeedForward(
          (layer_norm): LayerNorm((1024,), eps=1e-12, elementwise_affine=True)
          (layer_1): Linear(in_features=1024, out_features=4096, bias=True)
          (layer_2): Linear(in_features=4096, out_features=1024, bias=True)
          (dropout): Dropout(p=0.1, inplace=False)
          (activation_function): ReLU()
        )
        (dropout): Dropout(p=0.1, inplace=False)
      )
      (1): XLNetLayer(
        (rel_attn): XLNetRelativeAttention(
          (layer_norm): LayerNorm((1024,), eps=1e-12, elementwise_affine=True)
          (dropout): Dropout(p=0.1, inplace=False)
        )
        (ff): XLNetFeedForward(
          (layer_norm): LayerNorm((1024,), eps=1e-12, elementwise_affine=True)
          (layer_1): Linear(in_features=1024, out_features=4096, bias=True)
          (layer_2): Linear(in_features=4096, out_features=1024, bias=True)
          (dropout): Dropout(p=0.1, inplace=False)
          (activation_function): ReLU()
        )
        (dropout): Dropout(p=0.1, inplace=False)
      )
      (2): XLNetLayer(
        (rel_attn): XLNetRelativeAttention(
          (layer_norm): LayerNorm((1024,), eps=1e-12, elementwise_affine=True)
          (dropout): Dropout(p=0.1, inplace=False)
        )
        (ff): XLNetFeedForward(
          (layer_norm): LayerNorm((1024,), eps=1e-12, elementwise_affine=True)
          (layer_1): Linear(in_features=1024, out_features=4096, bias=True)
          (layer_2): Linear(in_features=4096, out_features=1024, bias=True)
          (dropout): Dropout(p=0.1, inplace=False)
          (activation_function): ReLU()
        )
        (dropout): Dropout(p=0.1, inplace=False)
      )
      (3): XLNetLayer(
        (rel_attn): XLNetRelativeAttention(
          (layer_norm): LayerNorm((1024,), eps=1e-12, elementwise_affine=True)
          (dropout): Dropout(p=0.1, inplace=False)
        )
        (ff): XLNetFeedForward(
          (layer_norm): LayerNorm((1024,), eps=1e-12, elementwise_affine=True)
          (layer_1): Linear(in_features=1024, out_features=4096, bias=True)
          (layer_2): Linear(in_features=4096, out_features=1024, bias=True)
          (dropout): Dropout(p=0.1, inplace=False)
          (activation_function): ReLU()
        )
        (dropout): Dropout(p=0.1, inplace=False)
      )
      (4): XLNetLayer(
        (rel_attn): XLNetRelativeAttention(
          (layer_norm): LayerNorm((1024,), eps=1e-12, elementwise_affine=True)
          (dropout): Dropout(p=0.1, inplace=False)
        )
        (ff): XLNetFeedForward(
          (layer_norm): LayerNorm((1024,), eps=1e-12, elementwise_affine=True)
          (layer_1): Linear(in_features=1024, out_features=4096, bias=True)
          (layer_2): Linear(in_features=4096, out_features=1024, bias=True)
          (dropout): Dropout(p=0.1, inplace=False)
          (activation_function): ReLU()
        )
        (dropout): Dropout(p=0.1, inplace=False)
      )
      (5): XLNetLayer(
        (rel_attn): XLNetRelativeAttention(
          (layer_norm): LayerNorm((1024,), eps=1e-12, elementwise_affine=True)
          (dropout): Dropout(p=0.1, inplace=False)
        )
        (ff): XLNetFeedForward(
          (layer_norm): LayerNorm((1024,), eps=1e-12, elementwise_affine=True)
          (layer_1): Linear(in_features=1024, out_features=4096, bias=True)
          (layer_2): Linear(in_features=4096, out_features=1024, bias=True)
          (dropout): Dropout(p=0.1, inplace=False)
          (activation_function): ReLU()
        )
        (dropout): Dropout(p=0.1, inplace=False)
      )
      (6): XLNetLayer(
        (rel_attn): XLNetRelativeAttention(
          (layer_norm): LayerNorm((1024,), eps=1e-12, elementwise_affine=True)
          (dropout): Dropout(p=0.1, inplace=False)
        )
        (ff): XLNetFeedForward(
          (layer_norm): LayerNorm((1024,), eps=1e-12, elementwise_affine=True)
          (layer_1): Linear(in_features=1024, out_features=4096, bias=True)
          (layer_2): Linear(in_features=4096, out_features=1024, bias=True)
          (dropout): Dropout(p=0.1, inplace=False)
          (activation_function): ReLU()
        )
        (dropout): Dropout(p=0.1, inplace=False)
      )
      (7): XLNetLayer(
        (rel_attn): XLNetRelativeAttention(
          (layer_norm): LayerNorm((1024,), eps=1e-12, elementwise_affine=True)
          (dropout): Dropout(p=0.1, inplace=False)
        )
        (ff): XLNetFeedForward(
          (layer_norm): LayerNorm((1024,), eps=1e-12, elementwise_affine=True)
          (layer_1): Linear(in_features=1024, out_features=4096, bias=True)
          (layer_2): Linear(in_features=4096, out_features=1024, bias=True)
          (dropout): Dropout(p=0.1, inplace=False)
          (activation_function): ReLU()
        )
        (dropout): Dropout(p=0.1, inplace=False)
      )
      (8): XLNetLayer(
        (rel_attn): XLNetRelativeAttention(
          (layer_norm): LayerNorm((1024,), eps=1e-12, elementwise_affine=True)
          (dropout): Dropout(p=0.1, inplace=False)
        )
        (ff): XLNetFeedForward(
          (layer_norm): LayerNorm((1024,), eps=1e-12, elementwise_affine=True)
          (layer_1): Linear(in_features=1024, out_features=4096, bias=True)
          (layer_2): Linear(in_features=4096, out_features=1024, bias=True)
          (dropout): Dropout(p=0.1, inplace=False)
          (activation_function): ReLU()
        )
        (dropout): Dropout(p=0.1, inplace=False)
      )
      (9): XLNetLayer(
        (rel_attn): XLNetRelativeAttention(
          (layer_norm): LayerNorm((1024,), eps=1e-12, elementwise_affine=True)
          (dropout): Dropout(p=0.1, inplace=False)
        )
        (ff): XLNetFeedForward(
          (layer_norm): LayerNorm((1024,), eps=1e-12, elementwise_affine=True)
          (layer_1): Linear(in_features=1024, out_features=4096, bias=True)
          (layer_2): Linear(in_features=4096, out_features=1024, bias=True)
          (dropout): Dropout(p=0.1, inplace=False)
          (activation_function): ReLU()
        )
        (dropout): Dropout(p=0.1, inplace=False)
      )
      (10): XLNetLayer(
        (rel_attn): XLNetRelativeAttention(
          (layer_norm): LayerNorm((1024,), eps=1e-12, elementwise_affine=True)
          (dropout): Dropout(p=0.1, inplace=False)
        )
        (ff): XLNetFeedForward(
          (layer_norm): LayerNorm((1024,), eps=1e-12, elementwise_affine=True)
          (layer_1): Linear(in_features=1024, out_features=4096, bias=True)
          (layer_2): Linear(in_features=4096, out_features=1024, bias=True)
          (dropout): Dropout(p=0.1, inplace=False)
          (activation_function): ReLU()
        )
        (dropout): Dropout(p=0.1, inplace=False)
      )
      (11): XLNetLayer(
        (rel_attn): XLNetRelativeAttention(
          (layer_norm): LayerNorm((1024,), eps=1e-12, elementwise_affine=True)
          (dropout): Dropout(p=0.1, inplace=False)
        )
        (ff): XLNetFeedForward(
          (layer_norm): LayerNorm((1024,), eps=1e-12, elementwise_affine=True)
          (layer_1): Linear(in_features=1024, out_features=4096, bias=True)
          (layer_2): Linear(in_features=4096, out_features=1024, bias=True)
          (dropout): Dropout(p=0.1, inplace=False)
          (activation_function): ReLU()
        )
        (dropout): Dropout(p=0.1, inplace=False)
      )
      (12): XLNetLayer(
        (rel_attn): XLNetRelativeAttention(
          (layer_norm): LayerNorm((1024,), eps=1e-12, elementwise_affine=True)
          (dropout): Dropout(p=0.1, inplace=False)
        )
        (ff): XLNetFeedForward(
          (layer_norm): LayerNorm((1024,), eps=1e-12, elementwise_affine=True)
          (layer_1): Linear(in_features=1024, out_features=4096, bias=True)
          (layer_2): Linear(in_features=4096, out_features=1024, bias=True)
          (dropout): Dropout(p=0.1, inplace=False)
          (activation_function): ReLU()
        )
        (dropout): Dropout(p=0.1, inplace=False)
      )
      (13): XLNetLayer(
        (rel_attn): XLNetRelativeAttention(
          (layer_norm): LayerNorm((1024,), eps=1e-12, elementwise_affine=True)
          (dropout): Dropout(p=0.1, inplace=False)
        )
        (ff): XLNetFeedForward(
          (layer_norm): LayerNorm((1024,), eps=1e-12, elementwise_affine=True)
          (layer_1): Linear(in_features=1024, out_features=4096, bias=True)
          (layer_2): Linear(in_features=4096, out_features=1024, bias=True)
          (dropout): Dropout(p=0.1, inplace=False)
          (activation_function): ReLU()
        )
        (dropout): Dropout(p=0.1, inplace=False)
      )
      (14): XLNetLayer(
        (rel_attn): XLNetRelativeAttention(
          (layer_norm): LayerNorm((1024,), eps=1e-12, elementwise_affine=True)
          (dropout): Dropout(p=0.1, inplace=False)
        )
        (ff): XLNetFeedForward(
          (layer_norm): LayerNorm((1024,), eps=1e-12, elementwise_affine=True)
          (layer_1): Linear(in_features=1024, out_features=4096, bias=True)
          (layer_2): Linear(in_features=4096, out_features=1024, bias=True)
          (dropout): Dropout(p=0.1, inplace=False)
          (activation_function): ReLU()
        )
        (dropout): Dropout(p=0.1, inplace=False)
      )
      (15): XLNetLayer(
        (rel_attn): XLNetRelativeAttention(
          (layer_norm): LayerNorm((1024,), eps=1e-12, elementwise_affine=True)
          (dropout): Dropout(p=0.1, inplace=False)
        )
        (ff): XLNetFeedForward(
          (layer_norm): LayerNorm((1024,), eps=1e-12, elementwise_affine=True)
          (layer_1): Linear(in_features=1024, out_features=4096, bias=True)
          (layer_2): Linear(in_features=4096, out_features=1024, bias=True)
          (dropout): Dropout(p=0.1, inplace=False)
          (activation_function): ReLU()
        )
        (dropout): Dropout(p=0.1, inplace=False)
      )
      (16): XLNetLayer(
        (rel_attn): XLNetRelativeAttention(
          (layer_norm): LayerNorm((1024,), eps=1e-12, elementwise_affine=True)
          (dropout): Dropout(p=0.1, inplace=False)
        )
        (ff): XLNetFeedForward(
          (layer_norm): LayerNorm((1024,), eps=1e-12, elementwise_affine=True)
          (layer_1): Linear(in_features=1024, out_features=4096, bias=True)
          (layer_2): Linear(in_features=4096, out_features=1024, bias=True)
          (dropout): Dropout(p=0.1, inplace=False)
          (activation_function): ReLU()
        )
        (dropout): Dropout(p=0.1, inplace=False)
      )
      (17): XLNetLayer(
        (rel_attn): XLNetRelativeAttention(
          (layer_norm): LayerNorm((1024,), eps=1e-12, elementwise_affine=True)
          (dropout): Dropout(p=0.1, inplace=False)
        )
        (ff): XLNetFeedForward(
          (layer_norm): LayerNorm((1024,), eps=1e-12, elementwise_affine=True)
          (layer_1): Linear(in_features=1024, out_features=4096, bias=True)
          (layer_2): Linear(in_features=4096, out_features=1024, bias=True)
          (dropout): Dropout(p=0.1, inplace=False)
          (activation_function): ReLU()
        )
        (dropout): Dropout(p=0.1, inplace=False)
      )
      (18): XLNetLayer(
        (rel_attn): XLNetRelativeAttention(
          (layer_norm): LayerNorm((1024,), eps=1e-12, elementwise_affine=True)
          (dropout): Dropout(p=0.1, inplace=False)
        )
        (ff): XLNetFeedForward(
          (layer_norm): LayerNorm((1024,), eps=1e-12, elementwise_affine=True)
          (layer_1): Linear(in_features=1024, out_features=4096, bias=True)
          (layer_2): Linear(in_features=4096, out_features=1024, bias=True)
          (dropout): Dropout(p=0.1, inplace=False)
          (activation_function): ReLU()
        )
        (dropout): Dropout(p=0.1, inplace=False)
      )
      (19): XLNetLayer(
        (rel_attn): XLNetRelativeAttention(
          (layer_norm): LayerNorm((1024,), eps=1e-12, elementwise_affine=True)
          (dropout): Dropout(p=0.1, inplace=False)
        )
        (ff): XLNetFeedForward(
          (layer_norm): LayerNorm((1024,), eps=1e-12, elementwise_affine=True)
          (layer_1): Linear(in_features=1024, out_features=4096, bias=True)
          (layer_2): Linear(in_features=4096, out_features=1024, bias=True)
          (dropout): Dropout(p=0.1, inplace=False)
          (activation_function): ReLU()
        )
        (dropout): Dropout(p=0.1, inplace=False)
      )
      (20): XLNetLayer(
        (rel_attn): XLNetRelativeAttention(
          (layer_norm): LayerNorm((1024,), eps=1e-12, elementwise_affine=True)
          (dropout): Dropout(p=0.1, inplace=False)
        )
        (ff): XLNetFeedForward(
          (layer_norm): LayerNorm((1024,), eps=1e-12, elementwise_affine=True)
          (layer_1): Linear(in_features=1024, out_features=4096, bias=True)
          (layer_2): Linear(in_features=4096, out_features=1024, bias=True)
          (dropout): Dropout(p=0.1, inplace=False)
          (activation_function): ReLU()
        )
        (dropout): Dropout(p=0.1, inplace=False)
      )
      (21): XLNetLayer(
        (rel_attn): XLNetRelativeAttention(
          (layer_norm): LayerNorm((1024,), eps=1e-12, elementwise_affine=True)
          (dropout): Dropout(p=0.1, inplace=False)
        )
        (ff): XLNetFeedForward(
          (layer_norm): LayerNorm((1024,), eps=1e-12, elementwise_affine=True)
          (layer_1): Linear(in_features=1024, out_features=4096, bias=True)
          (layer_2): Linear(in_features=4096, out_features=1024, bias=True)
          (dropout): Dropout(p=0.1, inplace=False)
          (activation_function): ReLU()
        )
        (dropout): Dropout(p=0.1, inplace=False)
      )
      (22): XLNetLayer(
        (rel_attn): XLNetRelativeAttention(
          (layer_norm): LayerNorm((1024,), eps=1e-12, elementwise_affine=True)
          (dropout): Dropout(p=0.1, inplace=False)
        )
        (ff): XLNetFeedForward(
          (layer_norm): LayerNorm((1024,), eps=1e-12, elementwise_affine=True)
          (layer_1): Linear(in_features=1024, out_features=4096, bias=True)
          (layer_2): Linear(in_features=4096, out_features=1024, bias=True)
          (dropout): Dropout(p=0.1, inplace=False)
          (activation_function): ReLU()
        )
        (dropout): Dropout(p=0.1, inplace=False)
      )
      (23): XLNetLayer(
        (rel_attn): XLNetRelativeAttention(
          (layer_norm): LayerNorm((1024,), eps=1e-12, elementwise_affine=True)
          (dropout): Dropout(p=0.1, inplace=False)
        )
        (ff): XLNetFeedForward(
          (layer_norm): LayerNorm((1024,), eps=1e-12, elementwise_affine=True)
          (layer_1): Linear(in_features=1024, out_features=4096, bias=True)
          (layer_2): Linear(in_features=4096, out_features=1024, bias=True)
          (dropout): Dropout(p=0.1, inplace=False)
          (activation_function): ReLU()
        )
        (dropout): Dropout(p=0.1, inplace=False)
      )
    )
    (dropout): Dropout(p=0.1, inplace=False)
  )
  (fc_dropout): Dropout(p=0.5, inplace=False)
  (fc): Linear(in_features=1024, out_features=15, bias=True)
)
pretrained_model.mask_emb False
pretrained_model.word_embedding.weight False
pretrained_model.layer.0.rel_attn.q False
pretrained_model.layer.0.rel_attn.k False
pretrained_model.layer.0.rel_attn.v False
pretrained_model.layer.0.rel_attn.o False
pretrained_model.layer.0.rel_attn.r False
pretrained_model.layer.0.rel_attn.r_r_bias False
pretrained_model.layer.0.rel_attn.r_s_bias False
…
